2024-09-24 23:02:09 - body_transformer_logger - INFO - ====================
2024-09-24 23:02:09 - body_transformer_logger - INFO - Model Summary: 
2024-09-24 23:02:10 - body_transformer_logger - INFO - =========================================================================================================
Layer (type:depth-idx)                                  Output Shape              Param #
=========================================================================================================
BoTMix                                                  [32, 7]                   --
├─Linear: 1-1                                           [32, 7, 64]               128
├─PositionalEncoding: 1-2                               [32, 7, 64]               --
├─ModuleList: 1-3                                       --                        --
│    └─MaskedTransformerEncoder: 2-1                    [32, 7, 64]               49,984
│    └─MaskedTransformerEncoder: 2-2                    --                        (recursive)
│    │    └─ModuleList: 3-3                             --                        (recursive)
│    └─TransformerEncoder: 2-3                          [32, 7, 64]               --
│    │    └─ModuleList: 3-2                             --                        49,984
│    └─MaskedTransformerEncoder: 2-4                    [32, 7, 64]               49,984
│    │    └─ModuleList: 3-3                             --                        (recursive)
├─Linear: 1-4                                           [32, 7, 1]                65
=========================================================================================================
Total params: 200,129
Trainable params: 200,129
Non-trainable params: 0
Total mult-adds (M): 3.21
=========================================================================================================
Input size (MB): 0.00
Forward/backward pass size (MB): 2.64
Params size (MB): 0.20
Estimated Total Size (MB): 2.84
…
